…
    "jp-MarkdownHeadingCollapsed": true
   },
   "source": [
    "## Param Counting"
   ]
  },
  {
   "cell_type": "code",
   "execution_count": null,
   "id": "d131ee86",
   "metadata": {},
   "outputs": [
    {
     "name": "stdout",
     "output_type": "stream",
     "text": [
      "==========================================================================================\n",
      "Layer (type:depth-idx)                   Output Shape              Param #\n",
      "==========================================================================================\n",
      "CNN                                      [1, 9]                    --\n",
      "├─Sequential: 1-1                        [1, 64, 32, 32]           --\n",
      "│    └─CNNBlock: 2-1                     [1, 32, 128, 128]         --\n",
      "│    │    └─ModuleList: 3-1              --                        896\n",
      "│    └─MaxPool2d: 2-2                    [1, 32, 64, 64]           --\n",
      "│    └─CNNBlock: 2-3                     [1, 64, 64, 64]           --\n",
      "│    │    └─ModuleList: 3-2              --                        18,496\n",
      "│    └─MaxPool2d: 2-4                    [1, 64, 32, 32]           --\n",
      "├─Sequential: 1-2                        [1, 9]                    --\n",
      "│    └─Flatten: 2-5                      [1, 65536]                --\n",
      "│    └─Linear: 2-6                       [1, 512]                  33,554,944\n",
      "│    └─ReLU: 2-7                         [1, 512]                  --\n",
      "│    └─Dropout: 2-8                      [1, 512]                  --\n",
      "│    └─Linear: 2-9                       [1, 256]                  131,328\n",
      "│    └─ReLU: 2-10                        [1, 256]                  --\n",
      "│    └─Dropout: 2-11                     [1, 256]                  --\n",
      "│    └─Linear: 2-12                      [1, 9]                    2,313\n",
      "==========================================================================================\n",
      "Total params: 33,707,977\n",
      "Trainable params: 33,707,977\n",
      "Non-trainable params: 0\n",
      "Total mult-adds (Units.MEGABYTES): 124.13\n",
      "==========================================================================================\n",
      "Input size (MB): 0.20\n",
      "Forward/backward pass size (MB): 6.30\n",
      "Params size (MB): 134.83\n",
      "Estimated Total Size (MB): 141.33\n",
      "==========================================================================================\n",
      "==========================================================================================\n",
      "Layer (type:depth-idx)                   Output Shape              Param #\n",
      "==========================================================================================\n",
      "CNN                                      [1, 9]                    --\n",
      "├─Sequential: 1-1                        [1, 128, 16, 16]          --\n",
      "│    └─CNNBlock: 2-1                     [1, 32, 128, 128]         --\n",
      "│    │    └─ModuleList: 3-1              --                        19,392\n",
      "│    └─MaxPool2d: 2-2                    [1, 32, 64, 64]           --\n",
      "│    └─CNNBlock: 2-3                     [1, 64, 64, 64]           --\n",
      "│    │    └─ModuleList: 3-2              --                        92,352\n",
      "│    └─MaxPool2d: 2-4                    [1, 64, 32, 32]           --\n",
      "│    └─CNNBlock: 2-5                     [1, 128, 32, 32]          --\n",
      "│    │    └─ModuleList: 3-3              --                        221,440\n",
      "│    └─MaxPool2d: 2-6                    [1, 128, 16, 16]          --\n",
      "├─Sequential: 1-2                        [1, 9]                    --\n",
      "│    └─Flatten: 2-7                      [1, 32768]                --\n",
      "│    └─Linear: 2-8                       [1, 512]                  16,777,728\n",
      "│    └─ReLU: 2-9                         [1, 512]                  --\n",
      "│    └─Dropout: 2-10                     [1, 512]                  --\n",
      "│    └─Linear: 2-11                      [1, 256]                  131,328\n",
      "│    └─ReLU: 2-12                        [1, 256]                  --\n",
      "│    └─Dropout: 2-13                     [1, 256]                  --\n",
      "│    └─Linear: 2-14                      [1, 9]                    2,313\n",
      "==========================================================================================\n",
      "Total params: 17,244,553\n",
      "Trainable params: 17,244,553\n",
      "Non-trainable params: 0\n",
      "Total mult-adds (Units.MEGABYTES): 939.66\n",
      "==========================================================================================\n",
      "Input size (MB): 0.20\n",
…
      "Input size (MB): 0.20\n",
      "Forward/backward pass size (MB): 40.90\n",
      "Params size (MB): 71.16\n",
      "Estimated Total Size (MB): 112.25\n",
      "==========================================================================================\n",
      "==========================================================================================\n",
      "Layer (type:depth-idx)                   Output Shape              Param #\n",
      "==========================================================================================\n",
      "CNN                                      [1, 9]                    --\n",
      "├─Sequential: 1-1                        [1, 256, 8, 8]            --\n",
      "│    └─CNNBlock: 2-1                     [1, 32, 128, 128]         --\n",
      "│    │    └─ModuleList: 3-1              --                        65,632\n",
      "│    └─MaxPool2d: 2-2                    [1, 32, 64, 64]           --\n",
      "│    └─CNNBlock: 2-3                     [1, 64, 64, 64]           --\n",
      "│    │    └─ModuleList: 3-2              --                        276,992\n",
      "│    └─MaxPool2d: 2-4                    [1, 64, 32, 32]           --\n",
      "│    └─CNNBlock: 2-5                     [1, 128, 32, 32]          --\n",
      "│    │    └─ModuleList: 3-3              --                        1,106,944\n",
      "│    └─MaxPool2d: 2-6                    [1, 128, 16, 16]          --\n",
      "│    └─CNNBlock: 2-7                     [1, 256, 16, 16]          --\n",
      "│    │    └─ModuleList: 3-4              --                        4,425,728\n",
      "│    └─MaxPool2d: 2-8                    [1, 256, 8, 8]            --\n",
      "├─Sequential: 1-2                        [1, 9]                    --\n",
      "│    └─Flatten: 2-9                      [1, 16384]                --\n",
      "│    └─Linear: 2-10                      [1, 512]                  8,389,120\n",
      "│    └─ReLU: 2-11                        [1, 512]                  --\n",
      "│    └─Dropout: 2-12                     [1, 512]                  --\n",
      "│    └─Linear: 2-13                      [1, 256]                  131,328\n",
      "│    └─ReLU: 2-14                        [1, 256]                  --\n",
      "│    └─Dropout: 2-15                     [1, 256]                  --\n",
      "│    └─Linear: 2-16                      [1, 9]                    2,313\n",
      "==========================================================================================\n",
      "Total params: 14,398,057\n",
      "Trainable params: 14,398,057\n",
      "Non-trainable params: 0\n",
      "Total mult-adds (Units.GIGABYTES): 4.48\n",
      "==========================================================================================\n",
      "Input size (MB): 0.20\n",
…
